Found 400000 word vectors.
Processing text dataset
('average len ', 238)
Found 174105 unique tokens.
('Shape of data tensor:', (19997, 300))
('Shape of label tensor:', (19997, 20))
Training model.
_________________________________________________________________
Layer (type)                 Output Shape              Param #   
=================================================================
embedding_2 (Embedding)      (None, 300, 100)          500000    
_________________________________________________________________
conv1d_1 (Conv1D)            (None, 300, 32)           9632      
_________________________________________________________________
max_pooling1d_1 (MaxPooling1 (None, 150, 32)           0         
_________________________________________________________________
gru_1 (GRU)                  (None, 256)               221952    
_________________________________________________________________
dense_1 (Dense)              (None, 20)                5140      
=================================================================
Total params: 736,724
Trainable params: 736,724
Non-trainable params: 0
_________________________________________________________________
None
Train on 15998 samples, validate on 3999 samples
Epoch 1/20
   64/15998 [..............................] - ETA: 4024s - loss: 2.9960 - acc: 0.0312
…
